_________________________________________________________________
Layer (type)                 Output Shape              Param #   
=================================================================
1692707059.049456 (InputLaye (None, 826, 4, 1)         0         
_________________________________________________________________
1692707059.0506542 (Conv2D)  (None, 826, 4, 64)        640       
_________________________________________________________________
1692707059.068253 (Conv2D)   (None, 826, 4, 8)         12808     
_________________________________________________________________
1692707059.082017 (Flatten)  (None, 26432)             0         
_________________________________________________________________
1692707059.0864587 (Dense)   (None, 1)                 26433     
=================================================================
Total params: 39,881
Trainable params: 26,433
Non-trainable params: 13,448
_________________________________________________________________
